…
2025-10-24 11:24:54.837487: I tensorflow/core/platform/cpu_feature_guard.cc:210] This TensorFlow binary is optimized to use available CPU instructions in performance-critical operations.
To enable the following instructions: AVX2 AVX512F AVX512_VNNI FMA, in other operations, rebuild TensorFlow with the appropriate compiler flags.  
Model: "functional"
┏━━━━━━━━━━━━━━━━━━━━━━━━━━━━━━━━━━━━━━┳━━━━━━━━━━━━━━━━━━━━━━━━━━━━━┳━━━━━━━━━━━━━━━━━┓
┃ Layer (type)                         ┃ Output Shape                ┃         Param # ┃
┡━━━━━━━━━━━━━━━━━━━━━━━━━━━━━━━━━━━━━━╇━━━━━━━━━━━━━━━━━━━━━━━━━━━━━╇━━━━━━━━━━━━━━━━━┩
│ input_layer (InputLayer)             │ (None, 16, 128, 128, 1)     │               0 │
├──────────────────────────────────────┼─────────────────────────────┼─────────────────┤
│ time_distributed (TimeDistributed)   │ (None, 16, 128, 128, 32)    │             320 │
├──────────────────────────────────────┼─────────────────────────────┼─────────────────┤
│ time_distributed_1 (TimeDistributed) │ (None, 16, 64, 64, 32)      │               0 │
├──────────────────────────────────────┼─────────────────────────────┼─────────────────┤
│ time_distributed_2 (TimeDistributed) │ (None, 16, 64, 64, 32)      │             128 │
├──────────────────────────────────────┼─────────────────────────────┼─────────────────┤
│ time_distributed_3 (TimeDistributed) │ (None, 16, 64, 64, 64)      │          18,496 │
├──────────────────────────────────────┼─────────────────────────────┼─────────────────┤
│ time_distributed_4 (TimeDistributed) │ (None, 16, 32, 32, 64)      │               0 │
├──────────────────────────────────────┼─────────────────────────────┼─────────────────┤
│ time_distributed_5 (TimeDistributed) │ (None, 16, 32, 32, 64)      │             256 │
├──────────────────────────────────────┼─────────────────────────────┼─────────────────┤
│ time_distributed_6 (TimeDistributed) │ (None, 16, 32, 32, 128)     │          73,856 │
├──────────────────────────────────────┼─────────────────────────────┼─────────────────┤
│ time_distributed_7 (TimeDistributed) │ (None, 16, 16, 16, 128)     │               0 │
├──────────────────────────────────────┼─────────────────────────────┼─────────────────┤
│ time_distributed_8 (TimeDistributed) │ (None, 16, 16, 16, 128)     │             512 │
├──────────────────────────────────────┼─────────────────────────────┼─────────────────┤
│ time_distributed_9 (TimeDistributed) │ (None, 16, 32768)           │               0 │
├──────────────────────────────────────┼─────────────────────────────┼─────────────────┤
│ lstm (LSTM)                          │ (None, 256)                 │      33,817,600 │
├──────────────────────────────────────┼─────────────────────────────┼─────────────────┤
│ dropout (Dropout)                    │ (None, 256)                 │               0 │
├──────────────────────────────────────┼─────────────────────────────┼─────────────────┤
│ dense (Dense)                        │ (None, 1)                   │             257 │
└──────────────────────────────────────┴─────────────────────────────┴─────────────────┘
 Total params: 33,911,425 (129.36 MB)
 Trainable params: 33,910,977 (129.36 MB)
 Non-trainable params: 448 (1.75 KB)
Epoch 1/10
c:\Users\JOSUE\AppData\Local\Programs\Python\Python312\Lib\site-packages\keras\src\trainers\data_adapters\py_dataset_adapter.py:121: UserWarning: Your `PyDataset` class should call `super().__init__(**kwargs)` in its constructor. `**kwargs` can include `workers`, `use_multiprocessing`, `max_queue_size`. Do not pass these arguments to `fit()`, as they will be ignored.
…
